…
Input shape: torch.Size([1, 43])
Input shape: torch.Size([1, 44])
Input shape: torch.Size([1, 45])
Input shape: torch.Size([1, 46])
Input shape: torch.Size([1, 47])
Input shape: torch.Size([1, 48])
Input shape: torch.Size([1, 49])
Input shape: torch.Size([1, 50])
Input shape: torch.Size([1, 51])
Input shape: torch.Size([1, 52])
Im Park ist nochgege: der, Gott, die in alten Lüchten stiegeln, du bist du bist du das die ihn furch die Dämmernden Gesichtern im goldnen Laut.  Die Blütte durch
Training completed in 3.21 minutes.
Test input shape: torch.Size([1, 192])
Model structure:
GPTModel(
  (tok_emb): Embedding(100256, 720)
  (pos_emb): Embedding(192, 720)
  (drop_emb): Dropout(p=0.1, inplace=False)
  (trf_blocks): Sequential(
    (0): TransformerBlock(
      (att): MultiHeadAttention(
        (W_query): Linear(in_features=720, out_features=720, bias=False)
        (W_key): Linear(in_features=720, out_features=720, bias=False)
        (W_value): Linear(in_features=720, out_features=720, bias=False)
        (out_proj): Linear(in_features=720, out_features=720, bias=True)
        (dropout): Dropout(p=0.1, inplace=False)
      )
      (ff): FeedForward(
        (layers): Sequential(
          (0): Linear(in_features=720, out_features=2880, bias=True)
          (1): GELU()
          (2): Linear(in_features=2880, out_features=720, bias=True)
        )
      )
      (norm1): LayerNorm((720,), eps=1e-05, elementwise_affine=True)
      (norm2): LayerNorm((720,), eps=1e-05, elementwise_affine=True)
      (drop_shortcut): Dropout(p=0.1, inplace=False)
    )
    (1): TransformerBlock(
      (att): MultiHeadAttention(
        (W_query): Linear(in_features=720, out_features=720, bias=False)
        (W_key): Linear(in_features=720, out_features=720, bias=False)
        (W_value): Linear(in_features=720, out_features=720, bias=False)
        (out_proj): Linear(in_features=720, out_features=720, bias=True)
        (dropout): Dropout(p=0.1, inplace=False)
      )
      (ff): FeedForward(
        (layers): Sequential(
          (0): Linear(in_features=720, out_features=2880, bias=True)
          (1): GELU()
          (2): Linear(in_features=2880, out_features=720, bias=True)
        )
      )
      (norm1): LayerNorm((720,), eps=1e-05, elementwise_affine=True)
      (norm2): LayerNorm((720,), eps=1e-05, elementwise_affine=True)
      (drop_shortcut): Dropout(p=0.1, inplace=False)
    )
    (2): TransformerBlock(
      (att): MultiHeadAttention(
        (W_query): Linear(in_features=720, out_features=720, bias=False)
        (W_key): Linear(in_features=720, out_features=720, bias=False)
        (W_value): Linear(in_features=720, out_features=720, bias=False)
        (out_proj): Linear(in_features=720, out_features=720, bias=True)
        (dropout): Dropout(p=0.1, inplace=False)
      )
      (ff): FeedForward(
        (layers): Sequential(
          (0): Linear(in_features=720, out_features=2880, bias=True)
          (1): GELU()
          (2): Linear(in_features=2880, out_features=720, bias=True)
        )
      )
      (norm1): LayerNorm((720,), eps=1e-05, elementwise_affine=True)
      (norm2): LayerNorm((720,), eps=1e-05, elementwise_affine=True)
      (drop_shortcut): Dropout(p=0.1, inplace=False)
    )
    (3): TransformerBlock(
      (att): MultiHeadAttention(
        (W_query): Linear(in_features=720, out_features=720, bias=False)
        (W_key): Linear(in_features=720, out_features=720, bias=False)
        (W_value): Linear(in_features=720, out_features=720, bias=False)
        (out_proj): Linear(in_features=720, out_features=720, bias=True)
        (dropout): Dropout(p=0.1, inplace=False)
      )
      (ff): FeedForward(
        (layers): Sequential(
          (0): Linear(in_features=720, out_features=2880, bias=True)
          (1): GELU()
          (2): Linear(in_features=2880, out_features=720, bias=True)
        )
      )
      (norm1): LayerNorm((720,), eps=1e-05, elementwise_affine=True)
      (norm2): LayerNorm((720,), eps=1e-05, elementwise_affine=True)
      (drop_shortcut): Dropout(p=0.1, inplace=False)
    )
    (4): TransformerBlock(
      (att): MultiHeadAttention(
        (W_query): Linear(in_features=720, out_features=720, bias=False)
        (W_key): Linear(in_features=720, out_features=720, bias=False)
        (W_value): Linear(in_features=720, out_features=720, bias=False)
        (out_proj): Linear(in_features=720, out_features=720, bias=True)
        (dropout): Dropout(p=0.1, inplace=False)
      )
      (ff): FeedForward(
        (layers): Sequential(
          (0): Linear(in_features=720, out_features=2880, bias=True)
          (1): GELU()
          (2): Linear(in_features=2880, out_features=720, bias=True)
        )
      )
      (norm1): LayerNorm((720,), eps=1e-05, elementwise_affine=True)
      (norm2): LayerNorm((720,), eps=1e-05, elementwise_affine=True)
      (drop_shortcut): Dropout(p=0.1, inplace=False)
    )
    (5): TransformerBlock(
      (att): MultiHeadAttention(
        (W_query): Linear(in_features=720, out_features=720, bias=False)
        (W_key): Linear(in_features=720, out_features=720, bias=False)
        (W_value): Linear(in_features=720, out_features=720, bias=False)
        (out_proj): Linear(in_features=720, out_features=720, bias=True)
        (dropout): Dropout(p=0.1, inplace=False)
      )
      (ff): FeedForward(
        (layers): Sequential(
          (0): Linear(in_features=720, out_features=2880, bias=True)
          (1): GELU()
          (2): Linear(in_features=2880, out_features=720, bias=True)
        )
      )
      (norm1): LayerNorm((720,), eps=1e-05, elementwise_affine=True)
      (norm2): LayerNorm((720,), eps=1e-05, elementwise_affine=True)
      (drop_shortcut): Dropout(p=0.1, inplace=False)
    )
    (6): TransformerBlock(
      (att): MultiHeadAttention(
        (W_query): Linear(in_features=720, out_features=720, bias=False)
        (W_key): Linear(in_features=720, out_features=720, bias=False)
        (W_value): Linear(in_features=720, out_features=720, bias=False)
        (out_proj): Linear(in_features=720, out_features=720, bias=True)
        (dropout): Dropout(p=0.1, inplace=False)
      )
      (ff): FeedForward(
        (layers): Sequential(
          (0): Linear(in_features=720, out_features=2880, bias=True)
          (1): GELU()
          (2): Linear(in_features=2880, out_features=720, bias=True)
        )
      )
      (norm1): LayerNorm((720,), eps=1e-05, elementwise_affine=True)
      (norm2): LayerNorm((720,), eps=1e-05, elementwise_affine=True)
      (drop_shortcut): Dropout(p=0.1, inplace=False)
    )
    (7): TransformerBlock(
      (att): MultiHeadAttention(
        (W_query): Linear(in_features=720, out_features=720, bias=False)
        (W_key): Linear(in_features=720, out_features=720, bias=False)
        (W_value): Linear(in_features=720, out_features=720, bias=False)
        (out_proj): Linear(in_features=720, out_features=720, bias=True)
        (dropout): Dropout(p=0.1, inplace=False)
      )
      (ff): FeedForward(
        (layers): Sequential(
          (0): Linear(in_features=720, out_features=2880, bias=True)
          (1): GELU()
          (2): Linear(in_features=2880, out_features=720, bias=True)
        )
      )
      (norm1): LayerNorm((720,), eps=1e-05, elementwise_affine=True)
      (norm2): LayerNorm((720,), eps=1e-05, elementwise_affine=True)
      (drop_shortcut): Dropout(p=0.1, inplace=False)
    )
  )
  (final_norm): LayerNorm()
  (out_head): Linear(in_features=720, out_features=100256, bias=False)
)
Total Trainable Parameters: 194,332,320
Input shape: torch.Size([1, 3])
Input shape: torch.Size([1, 4])
Input shape: torch.Size([1, 5])
Input shape: torch.Size([1, 6])
Input shape: torch.Size([1, 7])
Input shape: torch.Size([1, 8])
Input shape: torch.Size([1, 9])
Input shape: torch.Size([1, 10])
Input shape: torch.Size([1, 11])
Input shape: torch.Size([1, 12])
…
